static/modelo/custom_cnn_scripted.pt (torch, 500352 bytes, 24 tensors)

weight f4 [32, 1, 3, 3]
00000000: eb2f 9fbd ec2d a53e ab25 9fbe 055e 8d3e
00000010: 5e99 453e d043 153e be6c 88be ba6a c3bd
00000020: e2af 32be 2648 99be d43f 66be dce3 143e
00000030: 2111 1d3e 0033 f9bd f614 c5bd 0c3c 9c3e
00000040: caab b6bd 4f4b 1dbe df9c 8a3e 9420 293d
00000050: 5f46 e83d 2afa 273d ae5b 89be 00f3 91be
00000060: a22a 7c3e 56fe 8d3e 7b2a 9dbe 88a4 943e
00000070: 77ae 093e abad 9ebd 4267 92be 568b 96be
00000080: 970d f53d 7acf 353e ae58 0c3e dcaa 8abe
00000090: 23bd 593e 9369 3a3e 934a e93d b1ff 5cbb
000000a0: fd54 f73d 5cfb c2be 57c3 263d 7a31 583e
000000b0: 8234 b3be 2b4e 61be c99a debd 7a76 d13e
000000c0: 3a6c 1d3d be0a 26bd 6999 f03d c451 fbbd
000000d0: 6dd4 453e 2a6d 1c3e 6a58 7bbe c223 44be
000000e0: cea0 2f3e a8c9 e3bd 5319 ecbd 6165 253e
000000f0: c538 d8bd 4fe5 973d f0c7 0abe 9be9 8a3e
00000100: f3b2 283e 37cd 7a3e 0775 71be 4fc0 333e
00000110: f880 013c 9929 20be 5351 19be 7145 98be
00000120: 02da a4bd acd1 01be 00aa 38bd 54fd 82be
00000130: 033b 3dbd c66f d43d c9d3 08bb 6a0a 2a3e
00000140: 7934 993e 6fcc 833e 8108 6f3e 61a7 acbd
00000150: ba7c 6fbe af98 0cbe 5f8e 353e 5b74 23bd
00000160: 2a83 78be 076a ac3d a2a9 153e 6f91 b0bd
00000170: 7ade dd3d 604a 6fbd bc9f cd3d cfbc c33d
00000180: f617 d1be 6f41 0a3e 41ef a33d 714b 853e
00000190: 3aad 8cbe 01b9 bf3c efd7 993e 421c 25be
000001a0: 0a0d 09be 6a49 9c3d 277c 98be adfb 0c3e
000001b0: 8f8d 5a3d 737b 52be ff58 443d c75e a53d
000001c0: a846 f1bd d4c4 673e e91f f13b d14a 24be
000001d0: cd7a 1d3d 8d5c 963d 6fde 39be c4e7 eebd
000001e0: b961 1bbe 5469 c9bd 807e 14bc 74a4 5fbe
000001f0: 1640 743e 3f0c 78be 3939 17bd 1063 fbbd
00000200: 9bde 4cbe a7e0 db3d ce14 8c3d 3f8f 46bc
00000210: 4057 10be 7595 c53e 457e 45bd 7f96 fd3c
00000220: f012 c73d 601d c9bd 22c9 8abc 289e 293e
00000230: aba3 4d3e ead6 ab3e 32da 58be eafe 0a3d
00000240: 1b31 7abc 3180 8fbe d16f 863e 3c35 603e
00000250: 2b60 88bd 5507 123e 7eb9 3fbe 148e 87be
00000260: 9f61 d93d 60ef 7c3e 4a18 f23d c05d a9be
00000270: b4d8 673e 20dc 38be c6de 6d3e 173e 31be
00000280: b785 243e 0bb7 863e 32b1 01be e07c cc3d
00000290: 2b37 f3bc c0fb 08be 71f0 873c f6e5 893e
000002a0: 2eca bb3e 0362 8e3e c3d7 113c f1bf 12bd
000002b0: 6edb 80be cc0a ea3d 4c81 653e 9ef0 36bd
000002c0: 5e8c 2c3d 5c81 053d f86f 92bd f0ed 223c
000002d0: 87d6 52be 64aa 4bbe d18c e93d 823f 5c3e
000002e0: 7b65 223e 4d18 46bd 70a7 2cbd cfe2 1d3d
000002f0: 9ca3 343d 38f2 b03e 0af7 29bc 9a2f 2bbe
00000300: 3ba0 c13d a84a 9abe d3b7 3a3e eae4 79bd
00000310: 2475 2b3e 4d8d 42be bd9c 1e3e e3ad b8bd
00000320: c233 e3bd 7a4c 9c3e 33b6 b2bd 4c15 d9bd
00000330: 1ff1 223e 9789 203c 40b5 b23e a0fb 08be
00000340: da31 6d3e dec2 853e 39f0 6d3d 6d91 dc3d
00000350: 634c 3a3e 0bfc a3bd 5fd7 91be 71c9 9d3e
00000360: 4728 283d 7266 1cbe 8bfd ec3d f0e1 ae3a
00000370: 5873 a7be 5600 953c 8ea8 f8bd c621 9f3e
00000380: 6f64 ac3e 01bf 04bd 855f 18bd 55df 7fbe
00000390: 2128 213e 5962 0a3e 40f2 e53d 16c7 97bd
000003a0: d2d6 063d 5553 b93d d262 73bd 7bcb 36bd
000003b0: 2261 e8bd c71a b23d 2ca9 8c3e b488 883e
000003c0: 7160 023e 06f0 b0bc b79d 78be 328b 913e
000003d0: e0f6 f93a ca96 f63d 914b da3d 01ba 8d3e
000003e0: a554 053d 997a 8bbe 4c57 42be 5fe6 afbe
000003f0: d2fa 9abe df07 81bd 6e2d 72be be55 9c3d
-0.077728115 0.32261598 -0.31083426 0.27610794 0.19296786 0.1457665 -0.26645464 -0.09541841
-0.17449906 -0.29937857 -0.22485286 0.14540046 0.15338565 -0.121679306 -0.096231386 0.30514562
-0.08919485 -0.15360759 0.27072808 0.041290835 0.11341547 0.04101006 -0.2682776 -0.28505707
0.24625638 0.27733105 -0.30696473 0.29031777 0.1344546 -0.07747968 -0.28594404 -0.2940318
0.11965483 0.17754927 0.13705704 -0.2708348 0.21263556 0.18204336 0.11391177 -0.003372174
0.12076757 -0.38082397 0.040713634 0.21112624 -0.35000998 -0.22002475 -0.10869367 0.40910703
0.03843329 -0.04053759 0.11748011 -0.12271455 0.19319315 0.15276018 -0.24545446 -0.19154266
0.17151186 -0.11122447 -0.11528268 0.16151954 -0.10557703 0.07416784 -0.13552833 0.27131352
0.16474514 0.24492346 -0.23579799 0.17553829 0.007904284 -0.15640868 -0.14972429 -0.2974048
-0.08049394 -0.1267764 -0.045084 -0.255839 -0.046198856 0.103728816 -0.0020878187 0.16605535
0.29922846 0.25741908 0.23343088 -0.084303625 -0.23387423 -0.13730119 0.17730092 -0.039905887
-0.24268785 0.084186606 0.14615491 -0.08621489 0.1083345 -0.05842054 0.100402325 0.09557497
-0.40838593 0.13501523 0.080046184 0.2603412 -0.2747591 0.023403646 0.30047557 -0.16124061
-0.1338388 0.0763119 -0.2978222 0.13767882 0.053357657 -0.20554905 0.047936436 0.08074718
-0.11781055 0.22633678 0.0073585403 -0.16044165 0.03844719 0.073418714 -0.18151258 -0.116652995
-0.15173997 -0.09834543 -0.009063363 -0.21840078 0.23852572 -0.24223422 -0.036919806 -0.12274754
-0.20006792 0.107362084 0.06839906 -0.0121191135 -0.14095783 0.3859059 -0.048216123 0.030955551
0.09720409 -0.09820056 -0.01694161 0.16564238 0.20081966 0.33562404 -0.21176985 0.03393451
-0.015270497 -0.2802749 0.26257184 0.21895307 -0.066589676 0.1426061 -0.18723103 -0.26475585
0.10614323 0.2470069 0.11821039 -0.33079338 0.2264126 -0.18052721 0.23229513 -0.17308842
0.16066633 0.26311526 -0.12665251 0.099847555 -0.029689392 -0.13377285 0.016594144 0.2693326
0.36677688 0.27809152 0.008901539 -0.03582758 -0.25167412 0.114278406 0.22412604 -0.044663064
0.042126052 0.03259407 -0.071502626 0.009944424 -0.20589648 -0.19889218 0.11403812 0.21508601
0.15859024 -0.04836302 -0.04215187 0.03854638 0.044101343 0.34559798 -0.01037384 -0.16717377
0.0945439 -0.30135083 0.18234186 -0.061009325 0.16743904 -0.18999214 0.15489478 -0.09017541
-0.110938564 0.30527097 -0.08726158 -0.10599765 0.15912293 0.009798429 0.34903908 -0.13377237
0.23163548 0.26125234 0.058090422 0.10769925 0.18193202 -0.08007058 -0.28484628 0.3081775
0.041054036 -0.15273455 0.11571797 0.0013342481 -0.32705188 0.018188637 -0.12141524 0.31080455
0.33670375 -0.032408718 -0.03720047 -0.24987538 0.15737964 0.13514079 0.11227846 -0.074110195
0.032919712 0.090490974 -0.059420414 -0.044627648 -0.113466516 0.086965136 0.27472818 0.26666796
0.12732102 -0.021598827 -0.24278913 0.2842651 0.0019070767 0.120404795 0.106589444 0.27680972
0.032551426 -0.27241972 -0.18978614 -0.34355447 -0.30269486 -0.063003294 -0.23650143 0.076335415

bias f4 [32]
00000000: ed48 6fbb 3b61 0c3e 6e67 53bd 4f2f ce3d
00000010: b3e4 763e b56f 833e 8b09 be3d 2947 1fbe
00000020: 610c 7a3e 8fe0 8a3e 61c2 13be 0a8f 95be
00000030: 3f23 c939 801f 4cbe 5bd6 583e 81bb 84be
00000040: 05c3 33bd a206 95be 814a 96be d180 1abe
00000050: 2454 323e 51ea 48bd ea31 913e 0e44 01be
00000060: e6a6 943b 72bc 4e3d 88e5 0b3e c820 553d
00000070: 7eda 97be d90d 05bd 3fa8 7c3e d410 313e
-0.0036511973 0.13708965 -0.05161231 0.10067617 0.2411068 0.25671163 0.09279164 -0.15554489
0.24418785 0.2712445 -0.14429618 -0.29210693 0.00038363968 -0.19933891 0.2117552 -0.25924304
-0.043887157 -0.29106623 -0.29353717 -0.15088202 0.1741491 -0.049051587 0.28358394 -0.12623617
0.0045364974 0.050472684 0.13661778 0.052033216 -0.29658884 -0.03248391 0.24673556 0.17291576

weight f4 [32]
00000000: 9678 7c3f 6e3a 7a3f e0a3 843f a639 7e3f
00000010: 44d1 823f 3a75 7c3f 7a67 763f e1ff 823f
00000020: 0f97 853f 31d8 823f 50dd 7d3f 842f 823f
00000030: c9f4 773f f0b0 7a3f f146 7e3f d6ad 7a3f
00000040: 40fa 7c3f 4e51 7c3f ccc5 7c3f ed4c 793f
00000050: fafb 7c3f 6f75 7b3f d341 7e3f 2263 7b3f
00000060: a02a 7b3f 9624 7e3f 7785 7a3f a2bf 863f
00000070: 7dec 7e3f 515c 803f c299 7d3f 9f07 7f3f
0.986215 0.97745407 1.0362511 0.99306715 1.0220113 0.98616374 0.9625164 1.0234338
1.0436724 1.0222226 0.9916582 1.0170751 0.9685789 0.97926235 0.99327 0.979215
0.9881935 0.9856156 0.98739314 0.97383004 0.98821986 0.98226064 0.9931919 0.9819814
0.98111916 0.99274576 0.978599 1.0527232 0.995796 1.0028173 0.9906274 0.99621004

bias f4 [32]
00000000: f5d8 61bd e231 6ebd 28c8 693d 532a 9cbc
00000010: 6e56 613d 3b50 6e3c e0db 3cbd c103 5cbe
00000020: 9d8d ddbc e7be 2bbe d86b 3fbc 4744 34bd
00000030: 6d18 e7bc 0472 d43c 363d 753d 678e eebc
00000040: d507 19bd fc59 33bd 46cd 5a3d 1240 09bd
00000050: bd65 363d 2029 83bc 1e31 74bd 9425 a5bd
00000060: 64f1 343c f58b 2c3d 64aa 283d bec5 1ebe
00000070: 0c2b c83c b16e a2bc c8b5 2c3d 6a33 a4bd
-0.055138547 -0.05815304 0.05707565 -0.01906315 0.055014066 0.014545496 -0.046108127 -0.21485807
-0.027045066 -0.16772042 -0.011683427 -0.044010427 -0.02820989 0.025933273 0.05987283 -0.029120637
-0.037360985 -0.043786988 0.05341842 -0.033508368 0.04453062 -0.01601082 -0.059617154 -0.08063808
0.01104388 0.04212566 0.041178122 -0.1550512 0.024434589 -0.019828172 0.042165548 -0.08017619

running_mean f4 [32]
00000000: e8b1 f8bb 2fc5 403e 10a6 8bbd 488d e03d
00000010: 204f 613e ab08 513e 878b 203e 4aa1 24be
00000020: f045 783e 7600 8b3e f22b 23be e80d 90be
00000030: 6714 843b a469 dfbd 6821 563e e8c7 a8be
00000040: 9ea1 08bd 915d babe bbf7 c7be d02c 20be
00000050: 4688 283e 83cd 64bd da0c 593e eec6 56be
00000060: 9bae b4bc 6dbc f53c ea1d c93d 0f96 463d
00000070: d6b2 6dbe 2cd6 ddbc 818f 673e 1613 383e
-0.0075895675 0.1882522 -0.06818783 0.10964447 0.2200284 0.20413463 0.15678225 -0.16077152
0.24245429 0.2714879 -0.15934733 -0.2813561 0.0040307525 -0.10908821 0.20911181 -0.32965016
-0.033357255 -0.3639951 -0.3905619 -0.15642095 0.16458234 -0.055860054 0.21196309 -0.20974323
-0.022055915 0.029997075 0.09820159 0.04848295 -0.23212752 -0.027079664 0.22613336 0.1797603

running_var f4 [32]
00000000: e543 623b 7acb 303d dbe7 263c e2fc 5a3b
00000010: f44a 443c 47c3 523d 43ae 8b3d 6c5b 063c
00000020: 4e97 963b 8432 243b dac8 cb3b 5897 8b3b
00000030: 2660 8a3a 2db2 073e 4968 143b 9b3f a23d
00000040: 4406 953b 4aa6 af3d 97b5 213e fe91 0e3b
00000050: 790c 533b 6e62 1f3b 1143 c03d 3055 ef3d
00000060: e8f4 863c f374 073c 0063 ca3c bc7a 053c
00000070: 953b 833d 75fb 833a da5f 173c 7187 a83a
0.0034525332 0.0431628 0.010187115 0.003341489 0.011980761 0.051455762 0.06820347 0.008200508
0.0045956736 0.0025054524 0.0062190117 0.004259985 0.0010557219 0.13251562 0.0022645167 0.07922288
0.004547866 0.08576639 0.15791927 0.0021754499 0.003220348 0.0024320143 0.09387792 0.1168617
0.016474202 0.008267629 0.02470541 0.008146938 0.06407849 0.0010069447 0.009239161 0.0012857747

weight f4 [64, 32, 3, 3]
00000000: da49 1519 8c85 e81a 2240 6519 c219 119e
00000010: d018 a73b 9043 791f 8770 a31b 68f8 5018
00000020: 900e bd95 cb09 e39a a611 501f 00c4 4b1a
00000030: ce3e 669b 2dd7 fb3a 503b 989a 34ec 2b18
00000040: ca57 7699 92b9 7720 d430 289c b59b d295
00000050: 1c83 ff1a aeb0 a321 27b0 913c b8c0 b418
00000060: 1822 d598 c5d6 6a1a a5fa 3c1b 6d64 e999
00000070: adf5 aa9c d0c3 d91c cdf0 741f 7a98 7a3b
00000080: b00e a29f 1ff7 619c e08b a91b ee2e 8d99
00000090: 9537 5e1b 328f 1a9a 4bb6 0019 604c d41a
000000a0: fd1c 773d 2ee5 5c19 d8a0 0a1a 2eb4 d818
000000b0: 9cbb e599 9a41 8716 5dd1 009a 7016 809d
000000c0: 37d7 471b aa75 16bd 7ef8 7c9b ecd3 9a1b
000000d0: ef23 8418 adb6 039a 4598 849d 1df4 0f9a
000000e0: 0ca9 ad18 7278 ed19 fede 3ebd ae78 9999
000000f0: 95cf 251c 58ff ff99 987c 821a c614 be18
00000100: 20bb ac14 e6c6 4b99 de86 019c 26b9 07bc
00000110: a470 7a19 6555 501e 6bc4 ba1a 0fec 6820
00000120: 2a31 1c98 cfd0 3b99 1f92 219f 835f 0da2
00000130: 78c7 cf3a 4c51 6f1a 6b02 f219 1bbe 9e1a
00000140: a0b2 1e9e ec06 4299 f925 099b e859 489c
00000150: c3eb 1520 4dc8 e23c b09a cd21 859c 0998
00000160: 7e99 9719 4ca0 8999 549e 6d98 d508 fb1b
00000170: 407a b99e ad3a 0c22 231f 593d 2b80 429a
00000180: f3d8 ec9a 76f3 f09f 452e d51f 4bcc c09d
00000190: 6e12 a019 c70d 351d a1cf 149e e9ae 353d
000001a0: 9e05 019a e7ec 461c 3d68 6b19 39d7 309f
000001b0: bb19 e7a0 9e2c 989c 9ce0 8f97 f307 3d9f
000001c0: 1cb0 143c 6b85 c99e 67ed 7119 03b0 aa9a
000001d0: 1e05 8c18 4e02 c298 9b46 7e9a 8aff a5a1
000001e0: ff79 0ca2 ba3c 6bbd 7966 d89c 7a77 1619
000001f0: b636 4c9e 31d2 3a9f 7bca 8019 fa06 34a1
00000200: 3c7b 801c 54df 9898 68c3 4fbd fab2 909e
00000210: cb7e ef99 729c 01a2 6430 381e 9cbb 4d1a
00000220: 6f43 981c c1fa 5b1a 4470 6799 64e8 c53c
00000230: e43d 0b9a 9224 1f98 3842 0196 62eb 7ba1
00000240: 0f14 2899 cebf 6019 4152 bc1a 20b1 5b1a
00000250: 5c04 7b3c cb0e 279a e3bc 9c1b 66f4 9d97
00000260: e82e afa1 4b63 979a 174b a218 bbcc 1b1c
00000270: d55c 211c 379b 0abc 8af8 7f1c 118a 2597
00000280: 4025 2e1d e896 6618 90e2 a399 e642 479f
00000290: 3455 191c 1af5 b318 7874 023d cb43 04a2
000002a0: 0017 2e1a 8ce1 ac98 4ec8 4419 bfc8 359d
000002b0: a887 8698 3bf7 009a 6e0e 8197 82d1 3e3d
000002c0: dfeb 9517 50df 8597 e9c3 c599 0081 2a20
000002d0: 3681 1c99 8e53 d29a 428f 6219 a90b 0a1a
000002e0: 3ea4 43bc 322f bb18 af0a 541f 0b1d ca9e
000002f0: a169 f899 7f20 0d9c e561 7b9f b697 0ca2
00000300: fbfc 1118 b045 a73d c96b 0720 5e79 1c1b
00000310: 9422 9c1a 0413 b919 e2d0 ca1a abab 4d9c
00000320: 5558 d6a0 0db6 6918 1a16 283d 8286 299a
00000330: be8e 0299 fe4a 159f 840b 869c 9ed3 ce9f
00000340: f159 d118 3d84 009d 7905 0d1a 6369 6e3d
00000350: 60a6 de9c f144 dc1a eba8 799f e692 531e
00000360: 31d5 a598 9d2c 8a99 f6dc 0f20 79b8 d51f
00000370: 1036 0abd 989a a099 beba a899 551c 1121
00000380: 94c8 eea0 4d58 fc9f 671e 111a ece8 ab9c
00000390: f6f5 9e99 7170 873d becc 0219 7d52 8d1a
000003a0: 70e8 3099 b197 689b e0a0 dd19 2fe4 4b9d
000003b0: 5617 0399 f1e2 d81c a299 b8bc 5a95 691b
000003c0: 1203 9f19 4000 2019 f1ad 8619 c250 bd18
000003d0: adbc 23a0 0b66 9817 cb7d 5c19 381e 05bd
000003e0: 0b5b 0d22 dcc2 de99 a039 101c e3d9 b31c
000003f0: fb4b 7518 3b8d b11c 0baf f09a fb3c f6a0
7.718034e-24 9.616871e-23 1.1851974e-23 -7.681563e-21 0.0050993934 5.2783687e-20 2.7038807e-22 2.7008783e-24
-7.635947e-26 -9.390082e-23 4.4060312e-20 4.2137744e-23 -1.9045447e-22 0.0019213908 -6.296155e-23 2.2220484e-24
-1.2735631e-23 2.0983114e-19 -5.5649646e-22 -8.5063987e-26 1.05677347e-22 1.1092076e-18 0.017784191 4.6723506e-24
-5.5093635e-24 4.8563555e-23 1.5631983e-22 -2.4132197e-23 -1.1313162e-21 1.4410472e-21 5.1868196e-20 0.0038237856
-6.863397e-20 -7.476565e-22 2.8049097e-22 -1.4598013e-23 1.8381369e-22 -3.1962126e-23 6.654259e-24 8.7804535e-23
0.06033038 1.1420016e-23 2.866766e-23 5.6016626e-24 -2.375382e-23 2.1851827e-25 -2.6638902e-23 -3.3904518e-21
1.6530434e-22 -0.036733307 -2.0925244e-22 2.5614114e-22 3.4157484e-24 -2.723773e-23 -3.5097552e-21 -2.97689e-23
4.4890146e-24 2.4553873e-23 -0.04659938 -1.5868571e-23 5.4862214e-22 -2.6469515e-23 5.396803e-23 4.9134825e-24
1.744137e-26 -1.0535021e-23 -4.285683e-22 -0.008283889 1.2947445e-23 1.10290875e-20 7.724513e-23 1.972927e-19
-2.0187349e-24 -9.709842e-24 -3.4213945e-20 -1.9159627e-18 0.0015852293 4.9489713e-23 2.502319e-23 6.56544e-23
-8.401389e-21 -1.0030963e-23 -1.1344644e-22 -6.629065e-22 1.2698798e-19 0.027683401 1.3932286e-18 -1.7785857e-24
1.5675029e-23 -1.4230211e-23 -3.0711467e-24 4.1530174e-22 -1.9638198e-20 1.90046e-18 0.05300821 -4.0221793e-23
-9.795781e-23 -1.02046726e-19 9.0285555e-20 -5.103321e-21 1.6551056e-23 2.3962273e-21 -7.8779914e-21 0.04435626
-2.6681112e-23 6.5818894e-22 1.2170266e-23 -3.7447478e-20 -3.914995e-19 -1.007005e-21 -9.297858e-25 -4.0028882e-20
0.009075191 -2.1336883e-20 1.2507351e-23 -7.0594714e-23 3.619432e-24 -5.015015e-24 -5.2583004e-23 -1.1248476e-18
-1.9038122e-18 -0.05743096 -1.432017e-21 7.778946e-24 -1.0810984e-20 -3.9560898e-20 1.3316671e-23 -6.0995606e-19
8.502185e-22 -3.9516583e-24 -0.050723463 -1.5320616e-20 -2.4763232e-23 -1.7565581e-18 9.750886e-21 4.2544556e-23
1.0075947e-21 4.5490696e-23 -1.1965092e-23 0.024158664 -2.879452e-23 -2.0568732e-24 -1.0441432e-25 -8.5353634e-19
-8.689447e-24 1.1619263e-23 7.7887866e-23 4.543122e-23 0.015320864 -3.454674e-23 2.59301e-22 -1.0207582e-24
-1.1870877e-18 -6.261255e-23 4.195184e-24 5.1549806e-22 5.3390414e-22 -0.008459858 8.469365e-22 -5.348864e-25
2.3047966e-21 2.9802991e-24 -1.6945313e-23 -4.2195226e-20 5.0733576e-22 4.6517905e-24 0.031849355 -1.7925225e-18
3.6000936e-23 -4.4688702e-24 1.0173414e-23 -2.4058934e-21 -3.4775166e-24 -2.666949e-23 -8.340072e-25 0.04658652
9.688442e-25 -8.651296e-25 -2.044845e-23 1.4442243e-19 -8.091105e-24 -8.6988954e-23 1.1712857e-23 2.854715e-23
-0.011941014 4.8386022e-24 4.4901583e-20 -2.1399594e-20 -2.5685262e-23 -4.6694987e-22 -5.3232294e-20 -1.9053853e-18
1.8868533e-24 0.08167589 1.1470608e-19 1.2943233e-22 6.457595e-23 1.9136232e-23 8.388271e-23 -6.8050686e-22
-3.6311463e-19 3.0206456e-24 0.041036703 -3.5057035e-23 -6.749669e-24 -3.161401e-20 -8.870353e-22 -8.7594485e-20
5.411605e-24 -1.7009025e-21 2.9162537e-23 0.058205973 -1.4733735e-21 9.110125e-23 -5.2867527e-20 1.1200625e-20
-4.286677e-24 -1.4286885e-23 1.2185681e-19 9.0514193e-20 -0.033742964 -1.6606052e-23 -1.7446217e-23 4.916541e-19
-4.04515e-19 -1.0687223e-19 3.0009856e-23 -1.137604e-21 -1.643616e-23 0.06613243 6.76219e-24 5.84495e-23
-9.145927e-24 -1.9239604e-22 2.2915841e-23 -2.6984794e-21 -6.777254e-24 1.4352344e-21 -0.022534195 1.9321566e-22
1.6441455e-23 8.271857e-24 1.392553e-23 4.89369e-24 -1.3869065e-19 9.848529e-25 1.1399137e-23 -0.032499522
1.9157261e-18 -2.3032965e-23 4.772008e-22 1.1901549e-21 3.1703868e-24 1.1749385e-21 -9.954447e-23 -4.1714374e-19

bias f4 [64]
00000000: 643a d1b4 7a01 7037 9910 9db6 1240 8538
00000010: 84d5 81b7 76c9 7238 bcea fdb6 342c 8138
00000020: 784e 68b9 f14a 80b9 f95e 5437 fded 2539
00000030: fb60 8e37 a8f5 de37 878e ba36 494d e7b9
00000040: 4085 ebb4 3f10 9137 fc93 fd39 3251 b738
00000050: c0a2 1539 166c df38 96b0 0e3a 1e43 13b8
00000060: 2aaf 9637 964b 0939 f485 7b38 786d c5b7
00000070: 2b93 04b9 4c10 acba 22c0 30b8 e70c e738
00000080: d86f ae37 cdc6 5ab7 66b6 c736 b606 ebb9
00000090: c02a 4db9 dc0d edb7 d297 e0b8 0e0e 0339
000000a0: d89b a8b9 e4a3 b738 5e10 6a39 58d8 2138
000000b0: 4079 99b8 398d be36 309f 9437 d08d 46b8
000000c0: ff58 a239 e078 7c39 41c0 7d39 4aff 8738
000000d0: f2b3 783a cc2b 6838 5bf9 11ba b1b7 1e37
000000e0: 3c68 d8b5 5e31 57b9 0b37 3f38 4d00 a037
000000f0: e61e b5b9 efb2 e7b7 182a a4b8 a184 37b8
-3.8971768e-07 1.43054585e-05 -4.680897e-06 6.353868e-05 -1.5477424e-05 5.788492e-05 -7.5673142e-06 6.159433e-05
-0.00022154476 -0.00024469898 1.2658297e-05 0.00015824284 1.697288e-05 2.6578855e-05 5.5598243e-06 -0.00044117335
-4.3869113e-07 1.7292912e-05 0.00048366177 8.741244e-05 0.00014270376 0.00010653601 0.00054431835 -3.511004e-05
1.796296e-05 0.00013093496 5.9967817e-05 -2.3535205e-05 -0.00012643325 -0.0013127415 -4.2140608e-05 0.000110173416
2.0794498e-05 -1.30400995e-05 5.951896e-06 -0.00044827693 -0.00019566249 -2.8259055e-05 -0.00010709431 0.0001249837
-0.0003215957 8.756647e-05 0.00022322076 3.8586877e-05 -7.318193e-05 5.6788817e-06 1.7717102e-05 -4.7338952e-05
0.00030965355 0.00024077622 0.0002419958 6.484853e-05 0.0009487263 5.53539e-05 -0.0005568468 9.460303e-06
-1.612359e-06 -0.00020522389 4.558921e-05 1.9073626e-05 -0.0003454603 -2.7620668e-05 -7.82797e-05 -4.375412e-05

weight f4 [64]
00000000: 0c4f 723f f761 733f 05a1 6e3f 37c9 753f
00000010: 0730 7b3f 7cb3 703f 6a1e 713f b8ce 7c3f
00000020: e80d 7f3f 2c3e 803f a37f 723f 365b 783f
00000030: d0d7 713f ef02 7c3f c2cc 743f 13fd 843f
00000040: 94cb 783f d6ae 733f c0dc 863f 6713 823f
00000050: 7c03 7d3f f54c 753f b4e8 7a3f 7d95 773f
00000060: 4bea 773f 393c 763f dc80 733f d006 723f
00000070: df21 763f 7ce4 803f 1219 773f 9bc9 833f
00000080: 1a44 763f 55c0 703f 1b7c 773f 7360 813f
00000090: b638 7a3f 0dae 723f 4720 773f 14b9 813f
000000a0: 48e5 833f d7dd 773f ce2c 783f c4bf 813f
000000b0: 7ef8 743f 8adf 763f a319 753f 598c 793f
000000c0: 3911 823f 451d 793f 1ec9 7e3f da8b 763f
000000d0: c034 873f c4e9 713f 69ab 7c3f 0e2f 713f
000000e0: 7a31 773f ba80 7c3f 5bcf 743f b2a5 763f
000000f0: bc1d 843f 9f0a 743f 6014 723f 0c6d 7b3f
0.94651866 0.9507136 0.93214446 0.96010154 0.9812016 0.9402387 0.94187033 0.9875293
0.99630594 1.0018973 0.9472601 0.97014177 0.9446993 0.98441976 0.95624936 1.0389732
0.97185636 0.95188653 1.0536118 1.0162171 0.9883344 0.9582055 0.98011327 0.96712476
0.9684188 0.9618564 0.951185 0.94541645 0.96145433 1.0069728 0.9652263 1.02959
0.96197665 0.94043475 0.96673745 1.0107559 0.97742784 0.9479683 0.96533626 1.0134606
1.0304346 0.96822876 0.96943367 1.0136647 0.9569167 0.96434844 0.95742244 0.9747978
1.0161506 0.97310287 0.9952563 0.96307147 1.0562973 0.94497323 0.9869905 0.94212425
0.9655987 0.9863392 0.956289 0.9634658 1.0321574 0.95328707 0.9456234 0.9821327

bias f4 [64]
00000000: 1cea c43b e517 43bc 7036 06bd 47d0 ebbc
00000010: 6ece 713b 1f77 d2bc 1d7f 92bc d435 593a
00000020: 9d78 e93c cbfa 8b3a 0a8c b4bc bf58 92bc
00000030: 6bb9 c6bc b421 2f3c 11a4 8bbc e478 873d
00000040: 96ef b1bb a7e6 0cbd fe3d 873d 04c2 6b3d
00000050: 0d47 a73c 1d50 65bc c20f 923c 3238 2abc
00000060: 34c5 5e3c a781 3d3b 8ca3 623b 2e0b 57bc
00000070: c0f9 95bc 7662 fa3c b264 b6bc 9b19 403d
00000080: 917e c6bc 0b7c 89bc f241 b83a be6c c43b
00000090: 84df cf3c c6c8 113b dc58 98bc d28c 393d
000000a0: 775d 6d3d 1d8e 87bc eed9 073b dd22 2c3d
000000b0: 6390 14bd eca1 823c e031 73bc a349 8d3b
000000c0: 7e9b 243c 0e6b 8aba e5c5 4c3c e8b4 31bc
000000d0: 4e97 1d3d 152e 92bc 89b8 c33c 54f2 2cbc
000000e0: 5649 23bb bc16 403d 2a31 bbbc e80c 42bc
000000f0: 13ed e23c f869 823c 9703 22bc 1e39 78bc
0.0060093533 -0.011907552 -0.03276676 -0.028785838 0.0036896723 -0.025691567 -0.017882878 0.0008285914
0.028499896 0.00106796 -0.022039432 -0.017864583 -0.024258336 0.010689188 -0.017046006 0.06614855
-0.005430172 -0.034399655 0.06603621 0.057558075 0.020419622 -0.013996151 0.01782978 -0.010389375
0.013596822 0.002891639 0.0034582345 -0.013125224 -0.018307567 0.030564528 -0.022264812 0.04689942
-0.024230273 -0.016782781 0.0014057739 0.0059944084 0.025375135 0.0022244914 -0.018597059 0.045300312
0.057950463 -0.016547257 0.0020729261 0.042025436 -0.03627051 0.015946351 -0.014843434 0.0043117567
0.010046838 -0.0010560469 0.012498354 -0.010846354 0.038474374 -0.01784424 0.023891704 -0.010555822
-0.0024915538 0.04689668 -0.022850592 -0.011843897 0.027700936 0.01591967 -0.009888551 -0.015150337

running_mean f4 [64]
00000000: c4c0 153e 08d0 fd3d a22b a8bb 1461 94bd
00000010: cbb8 8bbc 600c 40bd 263b 16be bb5e 363e
00000020: 588a aa3c 8025 64bc b41b e8bd 9f63 253e
00000030: 2809 c93c d087 25bc 74bf e8bd 3053 5f3d
00000040: f4d1 3abd 0cbb b8bd c68a ebbb 0521 843d
00000050: df6b 0fbe c015 dfbd fec8 793d 4cdd 383d
00000060: 5e4e 85bd 34a7 0d3e 8768 eabd 2e3d 67bd
00000070: c867 01bd 1baa 88bc faf9 fc3c 6f6e 2fbd
00000080: 5338 303c dad5 20bd 5087 6d3d 160d a4bb
00000090: 808c 2fbd 9d02 5a3c 231f ddbd 574e 2fbd
000000a0: dbea 66bb fa87 5bbc fefd 9bbd 3d06 9f3c
000000b0: 7167 05be 54dc 32bd 70fd edbc 5bf1 85bd
000000c0: 77f4 5d3d 217c c5bd c594 14be 9211 debd
000000d0: 94bb da3c fd99 3dbd f9b5 5dbd eb51 3b3d
000000e0: 8fff 00be 81bd 31bd 856b 02bd 5517 91bb
000000f0: b65b f73c fc3a be3d ff81 ebbb f25c 2dbc
0.14624316 0.123931944 -0.0051321546 -0.07245079 -0.01705589 -0.0468868 -0.14671001 0.17809574
0.02081792 -0.013924956 -0.11333409 0.16151284 0.024540499 -0.010103181 -0.11364642 0.054522693
-0.045610383 -0.09020051 -0.007188174 0.064516105 -0.14005993 -0.1089282 0.060982697 0.04513292
-0.06509088 0.13833314 -0.11445718 -0.05645483 -0.031593114 -0.016682675 0.030880917 -0.042829927
0.010755616 -0.039266445 0.057990372 -0.005006443 -0.0428586 0.013306287 -0.107969545 -0.04279932
-0.00352352 -0.013399119 -0.076168045 0.019412154 -0.13027741 -0.043667153 -0.029051512 -0.065401755
0.054188218 -0.09642816 -0.14509876 -0.10843195 0.026700772 -0.046289433 -0.05412862 0.04573242
-0.12597488 -0.043393616 -0.03184082 -0.00442783 0.030195098 0.09288594 -0.0071871276 -0.010581242

running_var f4 [64]
00000000: 16ca 403b be6f 2439 379c 1b3a 05b2 fd3a
00000010: 5f3e 3638 324d 1539 c1b9 023b c97d 543a
00000020: 5d54 8f39 cabc b039 3b68 983a 7022 953a
00000030: 3a1d fb39 e905 4139 6ce9 123a f586 e839
00000040: ecb2 ad39 1634 5c39 7a56 2539 f602 9a39
00000050: cd57 fa39 444e b83a 9b79 dd38 dc0e 433a
00000060: dc7b bd38 a269 993a dd18 d43a 2088 9d3a
00000070: bd76 233a 75a5 8538 d0f4 443a 566d 093a
00000080: 20b0 813a 65cc 9b3a d147 653a ec26 cd38
00000090: 0e99 0f39 240d 5d3a e753 c53a 1c62 9838
000000a0: 8624 7e39 8212 7439 8420 b03a b7d5 5539
000000b0: e526 9e39 e21a 6e3a a0b0 673a fd2a 7839
000000c0: bbd8 9e39 ca30 ff39 6c20 eb39 a0f9 093a
000000d0: a274 8238 a242 763a b89c b339 c65c 8e3a
000000e0: b01e 133b d389 d038 476f 303a d2c2 b538
000000f0: eb2a f538 a7f0 c43a 1c1c da39 d94a 8739
0.0029417328 0.00015681886 0.00059360586 0.0019355422 4.345027e-05 0.00014238505 0.0019947144 0.00081059017
0.0002733794 0.00033709995 0.0011627743 0.0011378061 0.00047896226 0.00018408116 0.00056042406 0.0004435104
0.00033130439 0.00021000238 0.00015767841 0.00029375375 0.00047749133 0.0014061411 0.00010560752 0.0007440874
9.035293e-05 0.0011704455 0.0016181726 0.0012018718 0.000623565 6.372753e-05 0.00075132865 0.00052424276
0.0009894408 0.0011886476 0.0008746358 9.7824115e-05 0.0001369456 0.0008432439 0.0015054912 7.266199e-05
0.00024236934 0.00023276548 0.0013437425 0.00020392878 0.00030165087 0.00090829853 0.000883827 0.00023667137
0.00030297585 0.0004867374 0.0004484685 0.0005263332 6.2206076e-05 0.00093940843 0.00034258305 0.0010861389
0.002244871 9.943885e-05 0.0006730449 8.667041e-05 0.000116905045 0.0015025333 0.00041601143 0.00025804972

weight f4 [128, 64, 3, 3]
00000000: 05c9 b11a 43e6 d596 b484 9a99 0eda 861c
00000010: acc5 2dbd d130 6c19 1ea3 f819 508a 741b
00000020: d6d8 5499 026a d69a 80bd f71c 0ea1 cd19
00000030: d25c 519a 4159 12bd c44c 1919 9878 ff15
00000040: 6fd1 ac19 4228 4c1a 520a 3e1c 9c5a f618
00000050: 8c45 9d1b b734 7919 5f16 533c faaa cf9b
00000060: bf89 7198 5679 f018 3003 e815 6b7e e19a
00000070: 8e88 3018 d6b9 3519 c961 b09b 10c5 aa3b
00000080: 376a 8a19 484f f296 22b1 2019 8218 ba98
00000090: 2bb2 3b99 8157 a599 b029 3099 01cd b01b
000000a0: b32f 563c 15f4 7a1c f7ea 209a 6dea d619
000000b0: 8f4a dc1c 6344 531b 5adb 849a d2e2 0d1a
000000c0: d64b e618 db19 833d 70ef 3a1c 5b24 4f19
000000d0: 8d9e 3c1c 4d47 901c deb0 0e1c fe1f eb18
000000e0: c8b2 6919 1a1a b49a 8b75 92bc 6011 1a15
000000f0: 492b 0018 317a ab19 8868 b298 a9d1 1b1b
00000100: d16d 3b19 9695 0a99 5c8e 501d d490 06bc
00000110: d5e6 c89c a83a 9a17 0cee a519 7aff 2019
00000120: a0ce f21c c661 a619 03b4 e29c e8a8 1918
00000130: 28f0 b23a ad58 4f1b 60d7 f51c 9ce3 b81a
00000140: 8cde f89a f263 b01a 58c0 159a 0d97 0c9b
00000150: baa5 1e9b 2031 2dbd 2a84 8099 4674 8918
00000160: 3701 741b 3fbd db1b 444c 3c18 c5ae b519
00000170: 3fa3 899c 24d7 841b 842c d63c 1fda 891c
00000180: 06c6 e29a 181e 3a9a cdb8 6718 e703 1898
00000190: 3cf6 589a 4bb4 921a 5e26 e119 3f3b 193b
000001a0: 0cae a61a 9862 a899 2c31 5d9b 8bfd f89a
000001b0: b894 821a 2ee2 241b d217 e19a 1955 5e99
000001c0: deb4 f5b9 d314 2f98 41f2 1e9a dcd8 491a
000001d0: f6ea b499 d4d6 e099 a6da 131a 7e11 ab99
000001e0: 5a6e 5c97 1ee7 363c cb1a 8417 8ad1 1d1b
000001f0: a68f 9499 9897 0a9c 18b9 389a bc48 6f17
00000200: 4c43 e599 8a63 611b b975 cd3b 470a 2199
00000210: f088 0518 b63f 699b 43f3 0c9c 9587 9c97
00000220: 9411 2a9b 6028 5197 7ea0 e019 966c 033d
00000230: f02a 9896 3ad0 c418 fcb4 5c17 8eb2 f517
00000240: 91af a119 4b7b 2518 7bc4 cb19 cf5f 7b9a
00000250: 33d5 a039 e299 b19b c076 051b c29a 0e9a
00000260: 865e 251a a7e3 9e9c e931 bb99 7cfd 9c98
00000270: 6f98 c89b 37df a73c a471 079a bc18 0419
00000280: 5f9b a41b ac90 ac99 5ccd a218 46e6 c69a
00000290: ff4f b59a 0804 369a 54e5 533c 2567 301a
000002a0: f834 6a9a 1cb3 8f9b 9133 3e9a 1ad0 4196
000002b0: 6607 a69b 5e51 831a 35ab 9698 185a 13bd
000002c0: 5c60 e818 43a7 b319 408d 5099 489f 4095
000002d0: f80d ad97 db5f 9b98 0c22 391a 8f79 0e19
000002e0: 0436 323d 34dd 641c 936b 651c 2088 f21b
000002f0: 2b15 e198 fd8e bd18 b78e d298 9782 589a
00000300: 0ea6 289a e387 8cbb d3ab 4a1c 151d aa19
00000310: 3c20 9117 a323 0b99 43c8 8f19 651d d21b
00000320: d61b dd97 8011 1a96 f649 9c3c 209f 979c
00000330: df70 311b ad13 9c9a 00ad cb97 4bc3 8019
00000340: 7323 1f19 985b 6c9b d373 049b 646c 00bd
00000350: 4b60 3c99 1822 7a17 bcd4 f617 3c27 1b19
00000360: 5b0a de1b 6ef1 851c cefc 531a 80e4 7a1c
00000370: edca 86ba c1e2 3699 d032 649b 503d 5d98
00000380: 0048 ca19 7586 6f9a aeba 4b9d 554d 091a
00000390: d433 4019 5eb2 cc3c 123d 9b1b 08e5 8519
000003a0: ee88 8319 0ab4 8a9a e0aa 2b17 3d93 9819
000003b0: e0a2 489a 9eb6 8698 fad5 aabc 4cd3 0999
000003c0: 7241 b61a 54f8 9b1b 68db 4b1c 9fd0 091a
000003d0: 15bc 211d dd7f 3d9b 8037 fd16 055e a4bc
000003e0: 64e3 501b ffe9 de18 5644 a698 865b c599
000003f0: b209 6298 aa86 bd19 8405 4c9a 7c17 d599
7.353025e-23 -3.4557322e-25 -1.5976825e-23 8.923742e-22 -0.042424843 1.22107724e-23 2.5708481e-23 2.0227898e-22
-1.1003933e-23 -8.867959e-23 1.6394074e-21 2.1261553e-23 -4.3295167e-23 -0.03572965 7.925417e-24 1.03183943e-25
1.7868973e-23 4.221873e-23 6.2879065e-22 6.3681e-24 2.6018415e-22 1.2883644e-23 0.012883752 -3.4355768e-22
-3.1218064e-24 6.2161064e-24 9.370908e-26 -9.326206e-23 2.281641e-24 9.39501e-24 -2.917995e-22 0.00521148
1.4311765e-23 -3.9147242e-25 8.307578e-24 -4.810462e-24 -9.703654e-24 -1.7095943e-23 -9.1074055e-24 2.9249238e-22
0.013072896 8.303353e-22 -3.3277028e-23 2.2221765e-23 1.4577652e-21 1.7475608e-22 -5.49483e-23 2.934134e-23
5.953018e-24 0.06401416 6.1851703e-22 1.0708991e-23 6.2408904e-22 9.547551e-22 4.7212454e-22 6.077838e-24
1.2081922e-23 -7.4488424e-23 -0.017878314 3.111376e-26 1.6565466e-24 1.7730338e-23 -4.611747e-24 1.2889044e-22
9.689851e-24 -7.1646414e-24 2.7602169e-21 -0.008213241 -1.3294558e-21 9.966824e-25 1.7156747e-23 8.323399e-24
1.6067628e-21 1.7203488e-23 -1.5001957e-21 1.9860062e-24 0.0013651894 1.7151291e-22 1.6268413e-21 7.646834e-23
-1.0292994e-22 7.2953364e-23 -3.0967852e-23 -1.1629336e-22 -1.3123003e-22 -0.042283177 -1.328827e-23 3.5531076e-24
2.01836e-22 3.6352808e-22 2.4336935e-24 1.878555e-23 -9.108098e-22 2.19766e-22 0.026144274 9.122282e-22
-9.3791333e-23 -3.8488208e-23 2.994935e-24 -1.964751e-24 -4.486666e-23 6.0675464e-23 2.3279951e-23 0.002338126
6.893718e-23 -1.7410615e-23 -1.829658e-22 -1.02980017e-22 5.400701e-23 1.3638845e-22 -9.30963e-23 -1.1494316e-23
-0.00046864798 -2.2628733e-24 -3.2869325e-23 4.1741003e-23 -1.8706464e-23 -2.3247826e-23 3.057551e-23 -1.768805e-23
-7.1225117e-25 0.011163501 8.537064e-25 1.3054441e-22 -1.536086e-23 -4.58563e-22 -3.8199826e-23 7.731687e-25
-2.3705226e-23 1.8643727e-22 0.006270137 -8.3255804e-24 1.7258983e-24 -1.9293894e-22 -4.6636523e-22 -1.0115489e-24
-1.406775e-22 -6.7582503e-25 2.322588e-23 0.032085977 -2.4584022e-25 5.0875068e-24 7.131427e-25 1.5877827e-24
1.671792e-23 2.1387997e-24 2.1069066e-23 -5.1982977e-23 0.00030676424 -2.9381638e-22 1.1039872e-22 -2.9489924e-23
3.4197556e-23 -1.051441e-21 -1.9355505e-23 -4.058101e-24 -3.3185732e-22 0.02049218 -2.8009144e-23 6.829235e-24
2.723193e-22 -1.7842816e-23 4.208338e-24 -8.226291e-23 -7.4989086e-23 -3.7639974e-23 0.012933094 3.6479266e-23
-4.8432854e-23 -2.3773112e-22 -3.9332734e-23 -1.5656081e-25 -2.7467177e-22 5.4311786e-23 -3.8946966e-24 -0.035974592
6.0067893e-24 1.8575723e-23 -1.0781873e-23 -3.8899742e-26 -1.1183389e-24 -4.016335e-24 3.8284606e-23 7.3657765e-24
0.043508545 7.572477e-22 7.590878e-22 4.012351e-22 -5.818251e-24 4.8999736e-24 -5.4427833e-24 -4.4773243e-23
-3.4875724e-23 -0.00428866 6.705827e-22 1.7589334e-23 9.378542e-25 -7.193328e-24 1.4866739e-23 3.4760581e-22
-1.4288817e-24 -1.2445543e-25 0.019078236 -1.0033475e-21 1.4677567e-22 -6.4551876e-23 -1.3162239e-24 1.3313768e-23
8.227266e-24 -1.9551058e-22 -1.0956209e-22 -0.03135337 -9.7388184e-24 8.082239e-25 1.5951079e-24 8.0212355e-24
3.6733511e-22 8.86361e-22 4.383799e-23 8.301339e-22 -0.0010283865 -9.454972e-24 -1.8876136e-22 -2.8594535e-24
2.0915391e-23 -4.9532655e-23 -2.6963337e-21 2.8393404e-23 9.936634e-24 0.024987396 2.5682065e-22 1.3844383e-23
1.3600388e-23 -5.736633e-23 5.5468755e-25 1.57759e-23 -4.14906e-23 -3.4822584e-24 -0.020853985 -7.125405e-24
7.537917e-23 2.5803077e-22 6.745064e-22 2.849946e-23 2.1405409e-21 -1.5675028e-22 4.090938e-25 -0.020064363
1.727883e-22 5.762193e-24 -4.2978996e-24 -2.0406289e-23 -2.921471e-24 1.9596532e-23 -4.2190667e-23 -2.2033169e-23

bias f4 [128]
00000000: 6918 a534 460d b636 b760 6db6 2003 e6b1
00000010: 9e68 d435 6028 b1b6 026a 4b37 70e2 08b8
00000020: 7060 dbb4 c08b 9ab4 218d eab5 0c41 5036
00000030: cc75 5b36 f28a 71b6 811a 52b6 af8d 79b6
00000040: e87c d1b5 1206 ef36 9d0d 2f37 5fbe 8533
00000050: 987e b9b5 d744 81b6 055f a434 f2b2 8e36
00000060: 450d 9ab5 479c 08b6 647e 23b7 77df 80b7
00000070: 20be 73b4 a2ea f2b6 6a83 e035 777a 9636
00000080: 9c92 9437 0d66 2237 2b7a 1736 b0c9 89b6
00000090: d299 7136 d9ba 4a36 353d c836 ea19 91b6
000000a0: 6b78 8cb7 1ee4 30b7 7cfe 6935 1efe 6535
000000b0: fc31 ceb5 8d41 3cb6 6131 4236 e8f9 deb5
000000c0: 7973 36b5 eb29 02b5 2a66 3637 823b e334
000000d0: ded8 1e37 a80d e5b4 8264 57b6 c220 5735
000000e0: 00cc 4f30 9b9b 9336 f3c7 b635 450a 8db5
000000f0: 7246 6137 b83d 1ab6 465a ebb7 e77e 1636
00000100: 5e3f 0237 7ed8 d6b5 6812 7db7 4c37 a8b5
00000110: ca93 fcb6 c68b 2135 73f0 ac36 32d8 afb6
00000120: 9954 9c37 384f 7f36 486b 0834 d7a2 dab5
00000130: d19a 1ab5 f0a1 9bb5 b240 4eb6 7360 4836
00000140: 99e5 0536 e6f3 3635 fa51 f435 048d 1db6
00000150: 888f 1c35 8361 b236 430a bab6 d2a3 32b4
00000160: b08d f9b5 f60c 3035 c5c1 c2b6 a4af 29b7
00000170: d15b 05b7 ba02 8cb4 c4bc 8036 5a59 7f33
00000180: 3aba 6036 4019 6db6 de8a 1537 b2a4 ca35
00000190: 407e a4b5 def3 3437 dd9e 2835 0ae6 afb6
000001a0: 6259 8d34 2704 ff37 ba0d beb5 6403 9135
000001b0: da8c 6eb7 9e0e d9b5 e468 94b6 9eb4 61b6
000001c0: 936e 49b6 b787 e2b5 ea16 ec36 5c2b 5034
000001d0: fce9 4eb5 7046 1236 856d 9db6 b37f 58b8
000001e0: 08ef 5fb8 2417 1bb6 904c ff37 8593 8537
000001f0: fb70 4935 0561 0436 1477 5435 5781 7d36
3.0751406e-07 5.425568e-06 -3.5372047e-06 -6.6942363e-09 1.5825678e-06 -5.2797113e-06 1.2124425e-05 -3.2635813e-05
-4.0862096e-07 -2.8786417e-07 -1.7475433e-06 3.1032278e-06 3.270211e-06 -3.5992675e-06 -3.1307866e-06 -3.7186362e-06
-1.5608066e-06 7.1234617e-06 1.0433982e-05 6.2279234e-08 -1.3820418e-06 -3.8525136e-06 3.0616516e-07 4.2527618e-06
-1.1477756e-06 -2.0356545e-06 -9.744985e-06 -1.5362848e-05 -2.2700306e-07 -7.239477e-06 1.6727547e-06 4.484605e-06
1.7711245e-05 9.679713e-06 2.2571865e-06 -4.1063977e-06 3.6001334e-06 3.0209105e-06 5.96759e-06 -4.3243535e-06
-1.6745375e-05 -1.054353e-05 8.716959e-07 8.5678937e-07 -1.5362743e-06 -2.8052339e-06 2.8936995e-06 -1.6613021e-06
-6.796832e-07 -4.848977e-07 1.0871832e-05 4.2325343e-07 9.468027e-06 -4.266451e-07 -3.2096e-06 8.014141e-07
7.559606e-10 4.3990563e-06 1.361825e-06 -1.0508307e-06 1.3427447e-05 -2.2983713e-06 -2.805622e-05 2.2425609e-06
7.763358e-06 -1.600725e-06 -1.5084261e-05 -1.2533069e-06 -7.52739e-06 6.018057e-07 5.1539914e-06 -5.240575e-06
1.8636043e-05 3.8044072e-06 1.2705016e-07 -1.6289658e-06 -5.759476e-07 -1.159553e-06 -3.073405e-06 2.9858463e-06
1.9952188e-06 6.81552e-07 1.8203275e-06 -2.3476905e-06 5.8323394e-07 5.3161652e-06 -5.5444266e-06 -1.663714e-07
-1.8593182e-06 6.558397e-07 -5.8042083e-06 -1.01140795e-05 -7.948795e-06 -2.6079016e-07 3.8366725e-06 5.945308e-08
3.3487e-06 -3.533045e-06 8.913425e-06 1.5098105e-06 -1.2255696e-06 1.0785616e-05 6.2816054e-07 -5.2421865e-06
2.632833e-07 3.0400302e-05 -1.4160098e-06 1.0804329e-06 -1.42187e-05 -1.6172014e-06 -4.4229546e-06 -3.3632746e-06
-3.0015697e-06 -1.687781e-06 7.0360156e-06 1.9387284e-07 -7.708147e-07 2.1796695e-06 -4.6917144e-06 -5.1617342e-05
-5.338996e-05 -2.311027e-06 3.0434021e-05 1.592353e-05 7.5042743e-07 1.9726006e-06 7.9149436e-07 3.7775224e-06

weight f4 [128]
00000000: ac9a 6d3f be7f 7f3f 7c18 6b3f d20b 743f
00000010: a7ac 803f e417 743f 8cce 7f3f 0688 813f
00000020: 06d6 7a3f e478 783f 0d7f 723f a719 7c3f
00000030: 198e 7d3f cdb4 723f c0b2 713f 5121 803f
00000040: 90ae 7b3f b1be 753f 460e 823f 4c16 723f
00000050: 6539 743f 86c1 763f fb80 723f 7a6e 793f
00000060: 825f 633f 29b9 783f 0d33 813f 4820 6f3f
00000070: 313c 7d3f e3e4 763f 2b2b 723f 875a 7e3f
00000080: 53d7 7e3f 9280 813f 9d1a 843f 40d5 743f
00000090: 0427 773f 3431 7b3f 8fb3 813f 5032 793f
000000a0: 10b2 7f3f d5c7 7e3f 72dd 753f ee82 723f
000000b0: 8bb9 753f d028 7a3f 61b0 733f 8b7c 783f
000000c0: 40d2 6e3f 0c81 783f a0e0 803f 145d 6c3f
000000d0: 9e07 793f 4698 6b3f b9a1 803f beb9 7c3f
000000e0: e399 813f 8e02 7f3f 4337 7b3f 9a02 793f
000000f0: 4ead 833f 176a 783f 4dfa 833f a29b 733f
00000100: 73b9 813f 4c7f 813f 9f95 7c3f 80a0 6d3f
00000110: 9cba 7c3f e681 723f 667f 7a3f a2a3 7f3f
00000120: af2d 7b3f 103f 7f3f b256 793f 55aa 7b3f
00000130: d3cb 6d3f bd45 773f 187f 753f 6bb9 7d3f
00000140: 3844 743f 595d 783f c632 703f d809 7c3f
00000150: f854 6e3f 11e1 7e3f d70e 793f 8fd7 7a3f
00000160: a359 7c3f 51dc 703f 2ae0 7f3f 3811 7a3f
00000170: 7970 7f3f 467e 763f 9197 6b3f 54f2 6b3f
00000180: 1341 803f 3a3b 7c3f 969e 803f 1e85 743f
00000190: 522b 683f 3f92 823f 2487 713f 2043 803f
000001a0: 4c80 793f 2847 7f3f 7532 813f 7da6 7a3f
000001b0: c7a9 7a3f 09cc 6d3f 6981 7e3f b9b5 763f
000001c0: 35d6 7c3f ecc4 7f3f 048f 743f 2b3c 7a3f
000001d0: fb91 723f c7ca 6d3f af71 7e3f c09d 843f
000001e0: bc8c 803f 39bb 793f 75b6 813f 1808 7d3f
000001f0: 5f6a 6c3f 671c 7a3f bc33 773f 50fb 783f
0.92814136 0.99804294 0.91834235 0.95330536 1.0052689 0.95348954 0.9992454 1.0119636
0.97982824 0.97059464 0.94725114 0.9847664 0.9904495 0.9480713 0.94413376 1.0010167
0.98313236 0.95994097 1.0160606 0.9456527 0.9540008 0.96389043 0.9472806 0.974342
0.8881761 0.9715753 1.0093704 0.9340863 0.9891997 0.96443003 0.9459712 0.99356884
0.9954731 1.0117362 1.0320622 0.95637894 0.9654391 0.98121953 1.0132922 0.97342396
0.99881077 0.9952367 0.96041024 0.9473103 0.9598624 0.97718525 0.9519101 0.9706504
0.93289566 0.9707191 1.006855 0.92329526 0.9727725 0.92029226 1.0049354 0.9872092
1.0125087 0.99613273 0.981312 0.97269595 1.0287263 0.9703688 1.0310761 0.9515935
1.013472 1.0116973 0.98665804 0.9282303 0.98722243 0.9472946 0.97850645 0.9985906
0.9811658 0.997056 0.9739791 0.9830678 0.92889136 0.9659079 0.95897055 0.9911105
0.95416594 0.9701744 0.93827474 0.9845252 0.930984 0.99562174 0.9728827 0.97985166
0.98574275 0.94086176 0.9995142 0.97682524 0.99780995 0.9628643 0.92028147 0.9216664
1.0019859 0.9852787 1.0048397 0.9551562 0.906911 1.0200881 0.94346833 1.0020485
0.9746139 0.9971795 1.0093523 0.9791029 0.9791531 0.9288946 0.99416214 0.96371037
0.98764354 0.99909854 0.95530725 0.9774806 0.94754 0.9288754 0.9939222 1.0360641
1.0042949 0.97551304 1.0133806 0.98840475 0.9234981 0.9769959 0.96563315 0.9725847

bias f4 [128]
00000000: 8930 f9bc fea8 4f3c ed29 67bc 2c34 46bc
00000010: cd56 8c3c 16a8 cc3b f664 da3c 7b57 023d
00000020: ac80 bd3b 5f80 2e3c fef1 a0bc 55cd 263c
00000030: 19f3 883c f4b0 1dbc 2270 4f3b 4520 b63c
00000040: fbef 223c 6682 ddbb 8b21 233d 9199 8e3a
00000050: d713 e4bb 4a65 abbb 17ca 86bc 5123 c63b
00000060: 4910 cbbc c818 47bc 0f41 643b a576 39bc
00000070: 42a5 413c be42 f43a 4790 a7bc 2750 2e3c
00000080: 24f8 9c3c 189c a93c 80f5 d33c bfa9 72bb
00000090: fb8a 003c 5fe2 c73b 00c1 073d dcfe 6a3b
000000a0: ba0e cd3c 455e 193c 519f a9bc 76e4 c3bb
000000b0: 88bb 5fbb c0fb 233c 2858 47bb f8ed 17bc
000000c0: 554a 8fbc 4472 21bb c7a3 3a3c cb78 acbc
000000d0: 9e3a 27bb 6469 a9bc c421 153d 4d69 523c
000000e0: 9c8e 003d 9460 1e3c 68c8 23bb d7a5 d83b
000000f0: 0073 7c3c 8ff9 c93b 30c7 8d3c 22f8 2c3b
00000100: 8d29 853c 0d0b 953c e506 583c 69e6 cebc
00000110: 2400 943c 84e4 a0bc b534 ed3c 0e8e 6a3c
00000120: a55d 163c 52ee 6d3b a91b 4f3c 24c0 3dbb
00000130: 0559 dcbc 66d9 9dbb d97b 16bc 8e34 1d3c
00000140: 8e82 8bbb 92cb 433c 425a 03bd 72ac a7ba
00000150: 6610 99bc 0f2c 8a3b 9857 043a 3a73 c33c
00000160: 40b5 b23c bc05 8cbc 960f b43c 7647 073c
00000170: b63e 8b3c 9953 fcbb 934e 24bd f930 8ebc
00000180: 5bf9 233d c200 333c f173 be3c bfb9 07bd
00000190: 1cec 1bbc e867 ed3c f9b9 75bc fa26 933b
000001a0: 91b5 a03a ba11 143c 479a 883c 6044 d93b
000001b0: 72de ab39 e6ff 5cbc fac9 503c ce9d b63a
000001c0: f63a 533c 1596 c83b 6825 a2bc f8a8 c63b
000001d0: 1a0f bbbc 9cce 54bc 7e13 2a3b b33a fd3c
000001e0: 7506 ae3c 543b 30bb 4555 8b3c 9c56 ae3b
000001f0: 4eeb d7bc 6fc6 233c 75d9 13bc 8e71 833c
-0.030418651 0.012674568 -0.014109117 -0.0120974 0.017131234 0.0062456233 0.02665947 0.03182171
0.005783161 0.010650723 -0.01964664 0.010180791 0.01671748 -0.009624708 0.003165253 0.022232184
0.009944911 -0.0067599295 0.03982691 0.0010879507 -0.006960373 -0.0052305805 -0.016453786 0.0060466905
-0.024788039 -0.012151904 0.0034828817 -0.011319791 0.011819186 0.0018635613 -0.020454539 0.010639227
0.019161291 0.020704314 0.0258739 -0.0037027446 0.0078456355 0.0060999836 0.033143044 0.0035857474
0.025031436 0.0093608545 -0.02070585 -0.0059781624 -0.0034138877 0.010008752 -0.0030417535 -0.009273045
-0.017491499 -0.0024634758 0.011391587 -0.021053692 -0.0025517116 -0.020680137 0.036409155 0.0128424885
0.031386003 0.009666581 -0.0024991278 0.0066115665 0.0154082775 0.006163783 0.017306894 0.0026393016
0.016255165 0.018193746 0.013185238 -0.025256352 0.018066473 -0.019640215 0.028955797 0.014316095
0.0091776 0.003630538 0.012640872 -0.0028953636 -0.026897917 -0.0048171757 -0.009184801 0.00959505
-0.0042575067 0.01195039 -0.0320685 -0.0012792482 -0.018684577 0.004216678 0.0005048453 0.023858655
0.021814942 -0.017092578 0.021980088 0.008256784 0.016997676 -0.0077003953 -0.040113997 -0.017357336
0.040032726 0.010925474 0.023248645 -0.033136126 -0.009516742 0.02898021 -0.014997953 0.0044907304
0.0012261142 0.0090374295 0.016675128 0.0066304654 0.00032781396 -0.013488745 0.012743467 0.0013932528
0.012892475 0.006121407 -0.019793227 0.006062623 -0.02283435 -0.012988713 0.002595156 0.030911779
0.021243313 -0.002689083 0.017008433 0.0053203832 -0.02635732 0.009996041 -0.009024014 0.016045358

running_mean f4 [128]
00000000: 7fd9 013e 8263 133d 018a 783e eabd be3d
00000010: 82ca 11bd 7a59 003d 68f7 423d 144b 3ebd
00000020: 5bee 313e 168e ce3d a755 133e f93f dabd
00000030: 0cc8 04bd 3644 023d 47ca da3d a54c 3ebd
00000040: 9af6 ee3c eeb7 d1bd 61f0 9fbd 9606 1c3d
00000050: 9dce c03d 4e94 8abe a898 2d3e 0dfa 79bc
00000060: 2b12 e33d 17bb dd3d c082 78bd 69b2 e1bd
00000070: e032 79bc 9439 543c e9d6 d3bd 2681 23bd
00000080: 8a32 c5bd 81b7 f5bc 5763 853d ef5e 94bd
00000090: de75 22be e11a 803d d8f7 48bd 0f20 bcbd
000000a0: ac7f 63bd 8040 9e3d cf4b 753e b999 1b3b
000000b0: a463 443d b19b ca3b 1d27 6abd 34b1 a53d
000000c0: b91f 4ebe 4b61 223e 88c5 a6bc c2a1 803e
000000d0: f716 f23b 5461 753e 59fe 53bd 5341 873d
000000e0: b2bf dcbc c831 3ebd 5ce8 ab3d e47f c53d
000000f0: a829 10bd cb0a 643d e6c9 ccba 6cb4 423e
00000100: c613 57bd f948 21bc a235 1cbe 1a13 283d
00000110: 3137 d6bd 5470 203e 8ab8 5abd 3a44 c2bd
00000120: 5aa1 dcbd fe69 3bbd 5fbf 323c a111 603d
00000130: 4226 883e 1616 bb3d 1048 f33d 0222 66bd
00000140: af8d 1abe e748 aebe fb01 893e ee99 2e3d
00000150: 9b23 c2bd fc57 3ebe 78de 82bc ea11 81bd
00000160: 156c c3bd ce0e 853e 8f97 a7bd 23b3 c9bd
00000170: 4dd1 03be 703f e8bd 5cba 743e 19ca 673e
00000180: 0126 1cbe a11b 9ebd c2cc b6bd fa74 7a3e
00000190: 145e 183e 1596 5bbd f4fe 133d 4847 8ebd
000001a0: eade 7dbe 797e 593d 148e b9bc 3b60 1fbe
000001b0: 80be 95bc 1c8a 903e 8bda 1abd cc79 f73c
000001c0: 9617 623d b8e0 133d e8e4 fdbd 1c03 4bbd
000001d0: 288e 39bd bfbe 0dbe ffed adbd f7ae 743c
000001e0: 5d55 f3bc 4819 05bd 85bc ca3c 1d33 f7bb
000001f0: 3152 003e 540d cabc bb2b 143e 79c6 393d
0.12680624 0.03598357 0.24271394 0.09313567 -0.035593517 0.03133533 0.047599226 -0.04645832
0.17376082 0.100856945 0.14388143 -0.10656733 -0.032417342 0.031803332 0.106831126 -0.046459813
0.029170323 -0.1024016 -0.078095205 0.03809222 0.09414408 -0.27066272 0.16952765 -0.015257371
0.1108745 0.108267 -0.060671568 -0.11020357 -0.015209883 0.012953181 -0.10343725 -0.039918087
-0.0962878 -0.029994728 0.06513088 -0.0724467 -0.15865275 0.06255127 -0.049064487 -0.09185802
-0.05554168 0.07727146 0.239547 0.002374275 0.047946587 0.0061831106 -0.057166208 0.080904394
-0.20129289 0.15857427 -0.020357862 0.2512341 0.0073879915 0.23962909 -0.051756237 0.066042565
-0.026946876 -0.046434194 0.083939284 0.09643534 -0.035195976 0.055674355 -0.0015624135 0.19014138
-0.05250909 -0.009844058 -0.15254834 0.04103384 -0.10459746 0.1566785 -0.053398646 -0.094856694
-0.10772963 -0.04575538 0.010909884 0.054704312 0.26591688 0.09135072 0.11878979 -0.056184776
-0.1509311 -0.34039995 0.26759323 0.042627268 -0.094794475 -0.18588251 -0.015975222 -0.06302245
-0.095420994 0.25987858 -0.081832044 -0.09848621 -0.1287281 -0.11340225 0.23899215 0.22635688
-0.15248872 -0.077201135 -0.08925773 0.24458686 0.14879638 -0.053609926 0.036131814 -0.069471896
-0.24792066 0.05309913 -0.022650756 -0.15564053 -0.018279314 0.2823037 -0.037806075 0.030209444
0.055198275 0.03610298 -0.12397176 -0.049563512 -0.045301586 -0.13842295 -0.0849266 0.014934293
-0.02970379 -0.032494813 0.024748096 -0.007543935 0.12531354 -0.024664558 0.14469807 0.045355294

running_var f4 [128]
00000000: ae0f 2d3d 6ee8 ce3c 654d 2f3d b571 063d
00000010: 4698 4c3d 581f 083d 2bc6 003d 8c4b bd3c
00000020: 6f99 a13d 3007 453d 8664 7f3d d7ab 443d
00000030: 2231 513d 8437 013d 949c f83c c293 b53c
00000040: d917 bb3c 7a08 6f3d d0a9 2e3d b674 683c
00000050: 3678 1d3d 6635 b33d 1ebb 6a3d 1025 263d
00000060: f442 913d 9fd2 1a3d fe6b a93c dc4e df3d
00000070: 5803 ab3c 48a9 8c3c 6b47 153d 5c46 f23c
00000080: 6859 623c b6ff 2c3c bdb2 003d 98fe 603d
00000090: 987f d23c d17d 923d cb5b 3a3d 212d 813c
000000a0: 021a a93c 2ee4 5d3d 8399 833d 5161 873c
000000b0: 2bb0 3b3d d475 2e3d 136f 653c c3e3 393d
000000c0: 9770 3a3d 89e3 093d 0dbb f93c a70c 733d
000000d0: 271d 3d3c 9a56 4d3d c1ab b73c 9f12 ee3c
000000e0: 875b b03c 0286 aa3c ac2e 303d e2a1 233d
000000f0: 2539 d63c 8c3e fc3c c385 a93c 4baa 9e3d
00000100: 9e26 c23c c491 303d 566d 2e3d f2b1 0b3d
00000110: c4d1 5e3d 994a 4d3d f645 aa3c 9c14 a03c
00000120: 042e aa3c 6031 6a3c f364 d33c bf62 db3c
00000130: e15b 3e3d 0c55 d53c f3d7 273d 35f9 333d
00000140: 9349 093e d19a bf3d b716 303d 14ae 013d
00000150: 885b 213c def7 5b3d f1c6 193d 9422 0c3d
00000160: b6f2 fe3c f4d0 6d3d 87f1 ce3c cf16 153d
00000170: eedb ab3c 9b08 cd3c a029 243d 3751 2c3d
00000180: 1b4e 473c 0af2 573d 8cd7 b23c f2ac 723d
00000190: d23e 293d a205 e93c 3e16 b53c c3da db3b
000001a0: b465 8f3d b7f0 773d 7971 ac3c fe24 8c3d
000001b0: 3017 533d e26d 923d dfe8 ed3c 0c55 0b3d
000001c0: 47e3 f93c 5777 063d f3e0 273d c89e f33c
000001d0: f3ef 3f3d 5cbe aa3c 32f4 403d 31f6 753c
000001e0: c435 b33c 48fc fa3c 0267 c93c eb9b a33c
000001f0: 3eba 5a3d eece ab3c 0e15 713d 1dbf 893d
0.04225128 0.025257315 0.04279842 0.032823283 0.049949907 0.033233017 0.031438988 0.023107313
0.07890593 0.048102558 0.062351726 0.04801544 0.051072247 0.031547084 0.0303481 0.022165183
0.02283852 0.058357693 0.042642415 0.014187982 0.03844472 0.08750419 0.057307355 0.04056269
0.070928484 0.03779852 0.020681378 0.10903713 0.020875618 0.017170563 0.036445063 0.029574566
0.013815261 0.010559013 0.031420458 0.0549303 0.025695607 0.07152904 0.045497697 0.01576859
0.020642284 0.054172687 0.064257644 0.016525896 0.045822304 0.04259284 0.014003533 0.045383226
0.04551753 0.03366426 0.0304847 0.059338238 0.011542595 0.050131418 0.022420766 0.029061614
0.021528019 0.020815853 0.04301326 0.039949305 0.026150296 0.030791543 0.020693665 0.077473246
0.023700055 0.043107763 0.04258474 0.03410525 0.054399267 0.05011997 0.020785313 0.019541077
0.020773895 0.0142939985 0.025804972 0.026780484 0.04647434 0.02604153 0.04097743 0.043938834
0.13406973 0.09355701 0.042990413 0.031660154 0.009848483 0.05370318 0.03754324 0.034212664
0.031121593 0.0580606 0.025261654 0.036398705 0.020978894 0.025028517 0.04007876 0.04206964
0.012164618 0.05272106 0.021831296 0.059246965 0.041319676 0.028445069 0.022105332 0.006709428
0.0700182 0.060532298 0.021050202 0.06842993 0.051535785 0.07149865 0.029041706 0.034016654
0.030503882 0.032828655 0.040986013 0.029738799 0.046859693 0.020842724 0.047107883 0.01501231
0.021876223 0.030637875 0.02458525 0.019971808 0.05340027 0.020972695 0.05885797 0.06725905
